…
(148 \\times 148\\). Deeper parts of the network have more layers, but each is smaller. We will see how to load and inspect these features in the next lecture.\n\n\nf <- tempfile()\ndownload.file(\"https://uwmadison.box.com/shared/static/9wu6amgizhgnnefwrnyqzkf8glb6ktny.h5\", f)\nmodel <- load_model_hdf5(f)\nmodel\n\n\nModel\nModel: \"sequential_1\"\n______________________________________________________________________\nLayer (type)                   Output Shape                Param #    \n======================================================================\nconv2d_7 (Conv2D)              (None, 148, 148, 32)        896        \n______________________________________________________________________\nmax_pooling2d_7 (MaxPooling2D) (None, 74, 74, 32)          0          \n______________________________________________________________________\nconv2d_6 (Conv2D)              (None, 72, 72, 64)          18496      \n______________________________________________________________________\nmax_pooling2d_6 (MaxPooling2D) (None, 36, 36, 64)          0          \n______________________________________________________________________\nconv2d_5 (Conv2D)              (None, 34, 34, 128)         73856      \n______________________________________________________________________\nmax_pooling2d_5 (MaxPooling2D) (None, 17, 17, 128)         0          \n______________________________________________________________________\nconv2d_4 (Conv2D)              (None, 15, 15, 128)         147584     \n______________________________________________________________________\nmax_pooling2d_4 (MaxPooling2D) (None, 7, 7, 128)           0          \n______________________________________________________________________\nflatten_1 (Flatten)            (None, 6272)                0          \n______________________________________________________________________\ndropout (Dropout)              (None, 6272)                0          \n______________________________________________________________________\ndense_3 (Dense)                (None, 512)                 3211776    \n______________________________________________________________________\ndense_2 (Dense)                (None, 1)                   513        \n======================================================================\nTotal params: 3,453,121\nTrainable params: 3,453,121\nNon-trainable params: 0\n______________________________________________________________________\n\nWhile we will only consider image data in this course, the idea of learning complex features by composing a few types of layers is a general one. For example, in sen
…
